data.pth (torch, 11647 bytes, 6 tensors)

l1.weight f4 [8, 176]
00000000: ec09 ccbe a043 003f 37ae d83d 9e64 e33e
00000010: 84da 5fbe ad36 2fbe a231 9f3e 722b fb3d
00000020: d004 ef3e 220e 913f 099e 47be 04e5 56be
00000030: 7875 483f 6c4f 47be 9727 e43e 394d ce3e
00000040: 7ee7 c83e c70f d23e 70c4 083f 9216 4d3e
00000050: 6aeb 7fbd 6776 243f 5b9a b93e 5eae 803e
00000060: c37a 3c3e 7c1e b03e c4dc b23e 7b5f eb3e
00000070: 4fe5 3e3e f702 a33e 1503 8c3e b133 8c3e
00000080: 62be 96be 472b 37bf 74c0 853e 12ab 0d3e
00000090: 3123 0cbe 325b 523e 441d 853e d487 8cbd
000000a0: 2dee 3fbe 7e69 653e 3a72 1abf 277e cbbe
000000b0: fc2b f6be 6752 66bf 4e7a 833e c8d7 323f
000000c0: 90d6 8d3d bb39 653f 6268 123f 056e d03e
000000d0: feea 4c3d af4f 523f bfbc 003d 6740 213e
000000e0: 19fc 9cbd 5856 12be 7b9a 7cbd b2ed 5cbe
000000f0: 495a 3e3f 7e37 1cbd 731b 373f 4167 94be
00000100: 3ada dbbd 7065 dbbe ad96 8e3f dd36 e23e
00000110: 778d d63e 74b1 6e3e 14cc 413e 028c 22bf
00000120: 6c35 79bf 565e 24bf 71de ad3e 0288 22bf
00000130: fc29 103f 35ad ac3e 2085 1ebf 346e 22bf
00000140: 7b0a 63bf af3e c63e c681 b0be b2ed e13e
00000150: 48a5 223e 7468 1ebe 513c b43f a345 073f
00000160: 5de7 c3be 420d 0bbe fab9 253f d912 fe3d
00000170: 4766 7bbe 0dc6 993d a904 e63e c40a 2e3e
00000180: a4c3 8fbe bdc7 c6be 35df a43e 3363 dc3e
00000190: d8f5 efbd 71e0 82bf 1644 e43e e472 853e
000001a0: 99f5 163f 358d 8d3f 28a7 003f f66c 3f3f
000001b0: 2fe9 b1be b5e5 9f3d 5ee5 8f3f d389 8e3f
000001c0: a891 f03e 107c 0dbe 124a 76be ddf1 0a3f
000001d0: 10a2 cebe 69b9 0cbd c15e bbbe 868f 45bf
000001e0: c100 0ebd f976 f6bd d235 42bf f896 723d
000001f0: b9bd 973e d9c9 86be af18 36bf fb80 a23e
00000200: 4900 a6be 52c1 f03c 0377 e2bd 83bf 003f
00000210: 324b a0bd 32c7 13bf a658 093f 2e0b 87be
00000220: fa79 3dbe e5ae 9d3e 874d 01bf 9d6f 3ebf
00000230: 6e8b c83e 2cd3 213f 1ef3 1cbf 04aa f53e
00000240: b2ca c53e aab4 5dbe 0a78 8f3f 3f4d 403f
00000250: 6120 073f 75f1 25bd fd8a 11bf 6d3b 513f
00000260: 2e8b 2fbf d341 c83e 81c7 053f 3bc2 d4be
00000270: fe3f 25bd 506e c83d 28a0 1e3f 2e82 e2bd
00000280: 1b59 6b3e 7b17 d93d 522e 95be 088c 8dbe
00000290: 0131 85be 7527 87be 8c51 9fbe 1896 5c3f
000002a0: d056 003e 60e6 563e 2f67 e93e 9e5b 063f
000002b0: 2977 863e e28b 643e a6e1 eb3e 9471 a0be
000002c0: 47e8 66be 9d6f f4be b061 9abe 99a6 113f
000002d0: 1d02 4abd f875 43be 6733 bf3f e426 b73e
000002e0: 1a6f a33e 3b60 a83d 8c10 803f 71ae 38bd
000002f0: 4d92 4dbf 38cf 33bf fd41 0fbf 39c8 4e3d
00000300: 498e 503c 81ec e43d 4f6b dd3d d946 ebbe
00000310: c880 ad3e 20a9 833f aa12 97be 3bd8 e4be
00000320: fc50 033f 7cd0 e0be 95fe df3e 0ca4 d1bc
00000330: 26cd e9be d2f5 29be f828 963e 9f50 0c3f
00000340: 4806 913f 757c 83bf 2683 603e 47c6 0e3f
00000350: e79e f23e c5f6 c33e 86d8 88be 5ffc b93e
00000360: eb76 483f 6d61 5c3e 69dd 42be 9933 9e3e
00000370: 1e60 a8bf 6e5b 353f 4cf1 19bf 658e 133f
00000380: 10d0 bf3e 6b04 c03d 1712 433e 3583 23bf
00000390: f148 b23e 4af3 45bf dd5b 003f c0c2 073f
000003a0: 469a 81bd cf3d 6dbd 5cbd 5fbd 00e0 14be
000003b0: 9579 2fbe feb4 4abd a75c 783f 3a59 febe
000003c0: ad08 af3f 95c0 833f 63e7 153f 27f5 47bd
000003d0: d72f ffbe 63c5 8d3e 8444 d5be d1e0 b1be
000003e0: ef2f 323f 6092 233f 8029 53be e2e8 b3be
000003f0: 3b03 673f 15cf d13d 07ad c1be f64d b9be
-0.3985132 0.5010319 0.10580104 0.44412702 -0.21860701 -0.17110701 0.31092554 0.12264146
0.4668336 1.1332438 -0.1949388 -0.209858 0.78304243 -0.19463891 0.44561455 0.4029329
0.39239115 0.41027662 0.5342474 0.20028141 -0.062480368 0.6424317 0.36250576 0.25133032
0.18406205 0.34398258 0.34934056 0.45971283 0.18642162 0.318382 0.273461 0.27383187
-0.29442126 -0.7155041 0.26123393 0.1383479 -0.136853 0.20542601 0.2599889 -0.06861845
-0.187432 0.22403523 -0.60330546 -0.39744684 -0.48080432 -0.89969486 0.2567925 0.69860506
0.0692569 0.89541215 0.57190526 0.40708938 0.050028794 0.8215284 0.031430002 0.15747224
-0.07665271 -0.1429075 -0.06167076 -0.21575049 0.74356514 -0.03813886 0.7152626 -0.28985026
-0.10734983 -0.42850828 1.1139733 0.44182482 0.41904804 0.2330988 0.18925506 -0.63494885
-0.9734714 -0.64206445 0.33958772 -0.6348878 0.56314063 0.33725896 -0.6192188 -0.63449407
-0.88687867 0.387197 -0.3447401 0.4412666 0.15883362 -0.15469533 1.4080907 0.5284063
-0.38262454 -0.13579276 0.647369 0.12405939 -0.24550734 0.07508478 0.4492543 0.16996294
-0.2807895 -0.38824263 0.32201543 0.43044433 -0.11716813 -1.0224744 0.44583195 0.26064217
0.589685 1.1058718 0.5025506 0.74775636 -0.34748217 0.07807485 1.1241872 1.1135811
0.46986127 -0.13816857 -0.24051693 0.54275304 -0.4035802 -0.03435651 -0.3659573 -0.77172124
-0.034668688 -0.12034411 -0.75863373 0.059226006 0.29636934 -0.26325873 -0.71131414 0.3173903
-0.32422093 0.029389057 -0.11057856 0.50292224 -0.07826842 -0.5772582 0.5365089 -0.26375717
-0.18503562 0.30797496 -0.5050892 -0.7438906 0.39168876 0.6321285 -0.6130847 0.47981274
0.38631207 -0.21650949 1.1208508 0.7511787 0.5278378 -0.040513474 -0.56852704 0.817313
-0.68571746 0.3911272 0.52257544 -0.41554436 -0.04034423 0.097866654 0.6196313 -0.11059986
0.2298321 0.10600182 -0.29136902 -0.27645898 -0.2601395 -0.2639729 -0.31116903 0.86166525
0.12533116 0.20986319 0.45586535 0.52483547 0.26262787 0.22318986 0.46070594 -0.31336653
-0.22549544 -0.47741404 -0.30152655 0.5689483 -0.04931842 -0.1908797 1.4937562 0.3577186
0.319207 0.082214795 1.000505 -0.045088235 -0.8030136 -0.70238066 -0.55960065 0.050483916
0.012729236 0.11177922 0.10811483 -0.4595249 0.33887315 1.0285988 -0.29506427 -0.4469622
0.5129545 -0.4390906 0.43748918 -0.025590919 -0.45664328 -0.1659768 0.29328132 0.5481052
1.1330042 -1.0272356 0.21925029 0.557713 0.47386858 0.38274208 -0.26727694 0.36325356
0.78306454 0.2152154 -0.19029774 0.3089874 -1.3154333 0.70842636 -0.60133815 0.5763915
0.37463427 0.09375843 0.1904987 -0.6387208 0.34821275 -0.77324355 0.5014017 0.5303154
-0.063282534 -0.057920273 -0.054623947 -0.14538574 -0.17136224 -0.049489014 0.97016376 -0.4967745
1.3674523 1.0293146 0.58556193 -0.04881778 -0.49841186 0.27689657 -0.41653836 -0.34741834
0.6960439 0.63895226 -0.206213 -0.35138613 0.90239304 0.10244576 -0.37827322 -0.36192292

l1.bias f4 [8]
00000000: 0ba1 8d3f 860c 463f 2430 2d3f f954 d93e
00000010: 42ac c83f 4d3a 2c3f 1b10 143f 74b2 b23f
1.1064771 0.7736286 0.6765158 0.42447641 1.5677569 0.6727646 0.57837075 1.396071

l2.weight f4 [8, 8]
00000000: a1ff 63bf ff60 babf 3f07 3d3f 3c9a 2e3f
00000010: a02c 303e fcee 08bf 73b7 393f 5fd3 633f
00000020: e3f8 c73f 5423 dc3f 1c5a 7d3e 9110 d63e
00000030: e9f8 d1be 5bd2 ac3f a345 cd3f fbec 4cbf
00000040: 2aff a4bf 6deb ae3f c445 663f 3bac 723f
00000050: f6dc d63d 4744 2c3f d27d 473f 99cd f1bd
00000060: 6363 763f 3d3f b7bf 1ee7 a83f 6fda a03f
00000070: 6f74 aabf f773 583f 3544 e53f 4a4e 9d3f
00000080: 6549 0040 5ad7 8b3f 7be7 b83f a854 f1bf
00000090: a6db 133e 03a0 1a40 3ba7 ebbf be4f 0340
000000a0: 8d5f b8bf 93da a13f 18b9 e53f 195a 0040
000000b0: a98b 903f 26ed 643f d31a 3abf 629f 443f
000000c0: 9c18 6a3f cce1 aabf 0857 9f3e 063b 2f3f
000000d0: faea a6bf 4ee9 eebe d978 013f e1e9 a63f
000000e0: 1c9f ccbe 31be 9cbe 8f91 cd3e 4b87 eabe
000000f0: 64b1 1d40 b264 b5bf 1a5d d33f 3ab2 db3f
-0.89061934 -1.4560851 0.7383918 0.6820409 0.17204523 -0.5348966 0.72545546 0.889944
1.5622829 1.7198281 0.24741405 0.41809514 -0.41010216 1.3501695 1.6036876 -0.80049103
-1.289037 1.3665596 0.89950204 0.9479405 0.10491364 0.6729168 0.7792636 -0.11806793
0.962454 -1.4316174 1.3195531 1.2566661 -1.3316783 0.8455195 1.791144 1.2289517
2.0044796 1.0925095 1.4445642 -1.885396 0.14439258 2.4160163 -1.841041 2.051742
-1.440416 1.2644829 1.7947111 2.0054991 1.1292621 0.8942436 -0.7269718 0.768057
0.914438 -1.3350158 0.31121087 0.6844944 -1.3040459 -0.46662372 0.50575024 1.3040124
-0.3996514 -0.30613855 0.40150115 -0.45806345 2.463952 -1.4171355 1.6512787 1.7163765

l2.bias f4 [8]
00000000: be3e f6be 9063 20be 6b2f 98bf d6f4 1cbf
00000010: 791a 763f 7435 19be 30e6 51be 220b b53f
-0.48094743 -0.1566298 -1.1889471 -0.6131109 0.96134144 -0.14961797 -0.20497966 1.4144022

l3.weight f4 [28, 8]
00000000: 8b9a c0bd b150 31c0 7c72 08bf b5a9 91bc
00000010: 92ff 81bd 18a8 e1bc b778 573e cfe2 0cbe
00000020: 05c2 e7be 13ab 223f c75d 0b3f 2fc2 153f
00000030: 0c3a cdbf ae48 59bf 31a6 92be 82d3 d4bf
00000040: cab3 953e 0d4a dcbf 3b36 023e 0ae9 bebe
00000050: 0777 103c 429d 15bb 2969 efbf e2d7 273e
00000060: 32a0 10c0 e135 e9be ca9c fb3d b153 b3bb
00000070: 4353 393e 50c3 80be 6d1e 2bbf 607d 12bf
00000080: 0d17 9dbf 0b00 853e b0e9 e03e 5246 023d
00000090: bbaf 32bf 1633 863e 6826 00c0 fed2 b2bf
000000a0: a670 82be 7e75 18bd 57d7 1c3e 8841 72be
000000b0: efc2 51bf d748 48bd 15fa 5fbf b198 40be
000000c0: f03a 283f bafe 9abf e80e adbf 9dc0 aa3e
000000d0: 1db0 563e edcb 89bf dda0 163f 0efa 2ebf
000000e0: 11dc 5f3e dd44 eebe a731 b53d d544 d43d
000000f0: ad7a cfbf ea56 8c3e 2310 be3d 40b7 39bf
00000100: b189 ec3e 29fc c8be 7752 c9bd d1b7 783e
00000110: 3445 20be 79b5 4cbd cfa6 b6be c736 bdbf
00000120: 0d0b 923f d9f7 14c0 32da a7bd 1372 3cbe
00000130: 2687 f7bf c2e7 863e 994c bfbf 2068 e33e
00000140: dc62 33bf fd89 2dbe f351 f03e e740 573e
00000150: b4fa 27c0 35de 133f d3a7 2cc0 894e 39bd
00000160: f067 eabf 3b68 acbc fca4 c0bf 3aed ce3e
00000170: 6810 e83e ff9f 05c0 ce2d a6bc 4447 76bf
00000180: 985c 92bf fb64 22bf 9cf5 0e3f e75a 39bf
00000190: 2642 75be 74f8 cf3e 18f4 36c0 216d a1be
000001a0: 8478 19c0 d291 d7be 6f1f 323f ef0a bebf
000001b0: 78dc 9ebf ad58 383f 71f0 aabf 9a97 173d
000001c0: 1823 e2bf 26f3 22be 6b93 e8bd f770 11be
000001d0: 000a 783e eca2 923e 0234 edbe 09d2 19c0
000001e0: 1cba 51be 7643 eabf bb69 bf3e 5040 ddbf
000001f0: c238 cbbf 429a 2f3f 7a67 4bc0 f86b 543f
00000200: 27a2 5e3e f99c 393d 7d0f c2bf fbfe 203f
00000210: 5eb3 f7bf 7786 bbbf 6eab 643f d0e2 2abf
00000220: 1da3 e9be 9212 163f e53a 883e 1497 c9be
00000230: f34e 073f 62ee 06c0 24f7 bebf 0dfb 11c0
00000240: 72c0 19bf 7801 b1be 2267 42bf 8b64 cf3e
00000250: 555a d73e 393b 45bf 1f00 093f 2e8c 20c0
00000260: 38fc 05c0 5b55 143f 7f9a 66bf 8081 883e
00000270: 9418 ddbe 56c5 b3bf e32d 6dc0 d6a7 8d3e
00000280: c882 2fc0 013a 643e d551 433e 9385 05c0
00000290: c729 2cc0 e92b e7bd 9874 8abf b45d 923f
000002a0: 406a c8bf a886 0cc0 65e0 b4bf 797f adbe
000002b0: 6e5b 1b3f 9276 2ac0 0931 2f3f cd4b 653f
000002c0: ae7e 77c0 ec0a dbbf 3ecf b0bf c520 07bf
000002d0: f375 5c3f 5884 673f 6c1a 59c0 cb37 28be
000002e0: 73a4 423d 5745 0fc0 ad07 3bc0 44e2 06c0
000002f0: 72ab a23c 3702 a03e bb7d 46c0 69a3 c23f
00000300: 4fe8 8c3d 36f2 85be ae2a 33c0 5818 913e
00000310: 2055 eebf 9ba1 8a3e 2d41 21bf 2f31 113f
00000320: 5700 84c0 f30a 8c3d 3ed4 45c0 8473 65c0
00000330: f4db 933f 5c4e b1bf e525 0cc0 1063 ca3e
00000340: 90b6 28c0 ae7c ac3e 93e3 4dbd e0ad 39c0
00000350: 4a16 d03e c3a9 583f e19c 00c0 1be8 a7bf
00000360: d7ef 2bc0 50ac 833c 55b8 2bc0 bea9 48be
00000370: 4fa9 933f f855 a03d f872 ddbf 3ddd 1bc0
-0.09404477 -2.77055 -0.5329969 -0.017781118 -0.06347574 -0.027545974 0.21042143 -0.13758396
-0.45265213 0.6354229 0.5443997 0.58499426 -1.603334 -0.84876525 -0.2864242 -1.6627047
0.2923873 -1.7210099 0.12716 -0.3728717 0.008817441 -0.0022829329 -1.8703967 0.16390947
-2.2597775 -0.4554892 0.122857645 -0.0054726233 0.18098168 -0.25149012 -0.668433 -0.5722256
-1.227266 0.25976595 0.4392829 0.031805344 -0.69799393 0.2621085 -2.0023441 -1.397064
-0.2547657 -0.037221424 0.1531652 -0.2365781 -0.8193807 -0.04889759 -0.8749097 -0.18808247
0.6571493 -1.2108986 -1.3520174 0.33350077 0.2096562 -1.0765358 0.5883921 -0.68350303
0.21861292 -0.46536914 0.08847361 0.10364691 -1.6209313 0.2741006 0.092804216 -0.7254524
0.461988 -0.39254883 -0.09830182 0.2428887 -0.15651399 -0.049977753 -0.3567414 -1.4782342
1.1409622 -2.3276274 -0.08195914 -0.18402891 -1.9338119 0.26348692 -1.4945251 0.4441538
-0.7007272 -0.1694717 0.46937522 0.21020852 -2.6246767 0.57760936 -2.6977432 -0.045240913
-1.8312969 -0.021045795 -1.5050349 0.40415365 0.45325017 -2.0878904 -0.020285513 -0.9620249
-1.1434507 -0.63435334 0.5584352 -0.7240433 -0.23951015 0.40619242 -2.8586483 -0.3152857
-2.3979807 -0.4210344 0.69579214 -1.4847087 -1.2411032 0.7201031 -1.3354627 0.037009813
-1.766696 -0.15913066 -0.11356243 -0.14203249 0.24222565 0.28639925 -0.4632874 -2.4034445
-0.20481151 -1.8301837 0.37385353 -1.7285252 -1.5876696 0.68594754 -3.1781907 0.8297725
0.21741544 0.045315716 -1.5160977 0.6288907 -1.9351614 -1.465041 0.8932408 -0.6675234
-0.45632258 0.58622086 0.26607433 -0.39373076 0.5285484 -2.1082997 -1.4919171 -2.280948
-0.60059273 -0.34571433 -0.7593862 0.40506396 0.42061105 -0.7704349 0.5351581 -2.508556
-2.0935192 0.5794274 -0.9007949 0.266613 -0.43182814 -1.4044597 -3.7059257 0.2766711
-2.7423573 0.22287752 0.19074185 -2.0862777 -2.69005 -0.11287672 -1.0816832 1.1434846
-1.5657425 -2.1957188 -1.413098 -0.33886316 0.60686386 -2.663487 0.68434197 0.8956879
-3.867107 -1.7112708 -1.3813245 -0.5278438 0.86117476 0.90436316 -3.3922377 -0.16427533
0.047520112 -2.2386072 -2.9223435 -2.1075602 0.019857142 0.3125169 -3.101424 1.5206119
0.06880247 -0.26161355 -2.79948 0.28338885 -1.8619728 0.2707642 -0.62990075 0.56715673
-4.1250415 0.06838026 -3.0910792 -3.5851755 1.1551499 -1.3852038 -2.189813 0.39528704
-2.6361427 0.33688873 -0.05026586 -2.9012375 0.40642005 0.84634036 -2.0095751 -1.3117708
-2.6865137 0.016073376 -2.6831257 -0.19596002 1.1536044 0.07828897 -1.7300711 -2.4353783

l3.bias f4 [28]
00000000: 0605 0bbf eae0 8f3e 96eb 2fbf 6679 1ebf
00000010: 5ef4 d6be f0c1 7ebf 5ab2 b9be 0e39 cfbe
00000020: 9434 d5be 115c ef3d 6205 af3d ecab 43bd
00000030: a7c7 31bf f8be 01bf 91c5 13bf 95e4 c7bd
00000040: 5c05 953e b698 183e f8ad 3fbf ce9b f33e
00000050: 5893 3a3f 8086 013f 6671 cd3d 702c 063e
00000060: ab2a 62bc 6aa3 733f 9545 d33e 937b a53e
-0.5430454 0.28101283 -0.6871885 -0.6190399 -0.41983312 -0.99514675 -0.36268884 -0.40473217
-0.41641676 0.11687482 0.085459486 -0.04777138 -0.6944527 -0.5068202 -0.5772334 -0.097603954
0.2910565 0.14902005 -0.7487483 0.47579807 0.7288108 0.50595856 0.10031395 0.13102889
-0.013804118 0.95171225 0.41264024 0.32320842
